model/mnist_model.pth (torch, 409200 bytes, 4 tensors)

fc1.weight f4 [128, 784]
00000000: 5c57 293c 93aa 8bbc aa1e 7cbc aabe 143c
00000010: edd1 0ebd ae8a eebb 8501 0f3c 70a6 9bbc
00000020: 2579 b8b8 77f2 b1bc e169 373c 900b 0abd
00000030: 8022 a2bd c931 1abd c78a 363e 403e 823d
00000040: 4cc4 a7bc eee2 18bc 8acc 8abc 2386 fcbc
00000050: 8033 2a3b 3fb3 06bd 307f 9a3c f01a 92bc
00000060: 8e4b a4bc 0060 17bb 37b4 b9bc ce85 ca3c
00000070: acd9 9d3c 202e 10bc 9760 b8bc 635d 91bc
00000080: 3769 8d3c d97b 523d c436 323d 21ca 6139
00000090: 48d1 123c 3810 78bd aed1 503d d98e c13d
000000a0: df59 e6bb 882a 97ba c757 e9bd c1ad db3b
000000b0: b46b 173e 4dcc 883a 8dba 25be b8e0 7fbd
000000c0: 06dd 513b 0c5a 0f3d f301 07bc 83c5 13bd
000000d0: 9324 a0b6 b3e4 9bbc b1e9 d23c 0c11 903c
000000e0: a2d2 09bd 2b02 03bd b186 c4bc 8af4 a7bc
000000f0: 91bc 1dbd 42cb b53c 5062 ecbc 4792 cdbc
00000100: b6bc f43d ad38 353e cee2 4f3e d0d9 753d
00000110: 77f7 943e a0d5 2a3e 49f6 c639 376f 95bd
00000120: 2281 09bd 5767 0abd 4f4d 64be e1c3 a1be
00000130: 8567 afbe 8524 61be a052 2cbe ab91 e339
00000140: d2b1 9b3d f267 1e3e b334 1abc 9cf9 02bd
00000150: 01e5 593c 4ed2 d2bc 243a 92bd de2a 68bc
00000160: 56f9 f8bd 725a cfbc b3d8 1b3e 5681 c53d
00000170: 039c c73d 068a 183e abd2 923e b84d 953e
00000180: 2ab8 833e ab21 403e b0fd e73d 0c31 08bd
00000190: 8d44 21bd 516b 313e 973f 003e 700c 49bd
000001a0: 6ce5 b4bd 6afd 10be de61 4bbe e76e b1be
000001b0: 28ee 26bd 1a28 f03c 2b3f 14be f3d6 7e3c
000001c0: 8a99 b23c b1f9 12bb 3c39 65bd 67ba c03d
000001d0: 79a6 9ebc 0744 043e 80b4 813e 2db6 7e3e
000001e0: 2675 433e cc56 123e 9a59 233e 5faa 973e
000001f0: 5ca4 af3e 36ec 293e 4e31 483e 0060 e83d
00000200: 6f11 9c3d d378 e33d 8ad6 1b3e 787c d5bb
00000210: 8563 16be 61aa 3cbe cddf f1bd 8eab e7be
00000220: fc94 a3be 2ac4 5fbe 7831 70be 0ee6 13be
00000230: 2ab2 163c 5c1f 653b 8a42 5d3c f060 323d
00000240: 2304 c2ba e934 163e b870 463e 6047 913e
00000250: c7d6 8a3e cc33 9f3e 7c27 143e c05f 393e
00000260: 42a6 603e 3052 bd3d 301e a33d edb3 cb3c
00000270: c233 92bc 5d54 acbd 3ba1 8cbc 0b40 51bc
00000280: 119a af3d 6879 6f3d 9f4f dfbc 829a a0be
00000290: 4f8b e3be 67eb 26be f6d6 4abe 204b 46be
000002a0: 5342 43bc 3aac 1d3e a3b3 e73d 7f1c a33d
000002b0: cc61 683d f8ec 923e 4d0f 653e d931 b33e
000002c0: 5eac b93e 0418 373e 25fe 243e d3d8 3c3e
000002d0: d02b 833e ec6c 1f3e 601f e63d a517 843d
000002e0: 96c9 153d 963d c63d 3372 f5bd 0de0 54bc
000002f0: 2060 a0bd 4c78 6e3e 2003 a33e 8f15 8fbc
00000300: e32a 26be b7a9 adbd c293 4ebe d746 e1bd
00000310: 4ea3 9a3c 3b78 703e 43e5 3cbc 79c7 e83d
00000320: 3ee3 a03e 0194 053e be4c a93e 7764 613e
00000330: 1c3d 083e e93d ba3d 81de 843e f061 6d3e
00000340: 2b8a 7b3e 4e90 1a3e 19e4 ca3d 5d00 613e
00000350: 7cc7 693d 7e84 383d f229 10bd 4d14 a5bd
00000360: 5d27 a4bd c898 0d3e dfca 413e 5850 473c
00000370: dc62 d03c 929c 66bd 0342 9ebd a697 1fbe
00000380: 23c5 093d 01fd d43d fbf8 82be 73b9 b63d
00000390: 7e6c 803e 3dc2 2bbd 9781 edbc 9078 e83c
000003a0: fc9e 13be 84b8 f23d 382a 483e 12f8 143e
000003b0: 6411 883e 661d 883e bffd 603e 9dab 323e
000003c0: 12d9 c43d 58cb 943d c25d 713d fa2a 323d
000003d0: a3ba 1fbd 547e e13d 1ecc 6e3e 9cba f63d
000003e0: f447 a9bd 6bcd 78bd 9a14 8f3d ccd8 5abd
000003f0: ac54 01bd 7c47 4d3d 7636 55be 83c0 a93d
0.0103357695 -0.01704911 -0.01538817 0.009078661 -0.03486817 -0.0072797155 0.00872839 -0.019000262
-8.796369e-05 -0.021722062 0.011194677 -0.033702433 -0.079167366 -0.037645135 0.17826377 0.063595295
-0.020479344 -0.009331448 -0.016943235 -0.03082568 0.0025970638 -0.032885786 0.018859476 -0.01783511
-0.020055559 -0.0023097992 -0.022668941 0.024722006 0.019268833 -0.00880006 -0.022506995 -0.017744726
0.017262084 0.05138764 0.04350926 0.00021532971 0.008961029 -0.060562342 0.050981216 0.09451074
-0.0070297564 -0.0011533061 -0.11393695 0.0067040627 0.14787179 0.0010436863 -0.16184445 -0.062470168
0.003202261 0.034997985 -0.008240211 -0.036077034 -4.7726294e-06 -0.01902995 0.025746198 0.017586254
-0.03364814 -0.03198449 -0.023990007 -0.020502347 -0.03850991 0.022191647 -0.028855473 -0.025094165
0.11950056 0.17697401 0.20301363 0.060022175 0.2909505 0.16683054 0.00037949 -0.07296603
-0.033570416 -0.03378996 -0.22295116 -0.31594756 -0.34258667 -0.21986587 -0.16828394 0.00043405345
0.07602276 0.1546934 -0.009411979 -0.031976327 0.013299228 -0.025735047 -0.07139996 -0.014170377
-0.12156932 -0.025311682 0.15219383 0.096438095 0.09746554 0.14896402 0.28676352 0.29160857
0.25726444 0.18762843 0.11327684 -0.0332499 -0.039372016 0.17326094 0.12524258 -0.049084127
-0.08832821 -0.1415917 -0.19861552 -0.34654924 -0.040754467 0.029315997 -0.14477222 0.015554178
0.021801729 -0.002242666 -0.055962786 0.094105534 -0.01936649 0.12916575 0.25333023 0.24874182
0.19087657 0.14290923 0.15952149 0.2962217 0.34305084 0.16594014 0.19550058 0.113464355
0.07620513 0.1110703 0.15218559 -0.006515082 -0.14686401 -0.1842437 -0.11810265 -0.45248073
-0.31949604 -0.21852174 -0.23456371 -0.14443228 0.009197751 0.0034961319 0.013504634 0.043549478
-0.0014802258 0.14668621 0.19378936 0.28374767 0.27116987 0.31094205 0.14468187 0.18102932
0.21938422 0.09244192 0.07964742 0.024866069 -0.017846946 -0.084145285 -0.017166724 -0.012771617
0.08574308 0.05846539 -0.027259646 -0.3136788 -0.44442222 -0.16300736 -0.19808564 -0.19364595
-0.011917668 0.1539773 0.1131356 0.079644196 0.05673389 0.28696418 0.22369118 0.34998968
0.36264318 0.17880255 0.16112573 0.18442087 0.25619364 0.15568894 0.11236453 0.06449822
0.0365692 0.09679715 -0.119846724 -0.012992871 -0.078308344 0.23288077 0.31838322 -0.017466335
-0.16227297 -0.08479636 -0.20173553 -0.1099984 0.018876698 0.23483364 -0.01152927 0.113661714
0.31423372 0.1304474 0.33066362 0.2201098 0.13304561 0.0909384 0.25951007 0.23181891
0.24564426 0.1509411 0.099067874 0.21972795 0.05707501 0.04504823 -0.035196252 -0.08060513
-0.080153205 0.13827813 0.18925045 0.012165152 0.025437765 -0.05630166 -0.077274345 -0.15585193
0.03363527 0.10399819 -0.25580582 0.089220904 0.25082773 -0.041933287 -0.028992457 0.028377801
-0.14416116 0.118516 0.19547355 0.14547756 0.26575768 0.2658493 0.21971796 0.17448278
0.096117154 0.07265347 0.058927305 0.043498017 -0.03899635 0.11010423 0.23320052 0.12047312
-0.08265677 -0.060742777 0.06986351 -0.05342941 -0.03157489 0.050117 -0.20821556 0.08288672

fc1.bias f4 [128]
00000000: 52fd b8bd 5063 293d 6757 b93d 1acd 4c3e
00000010: 1ad6 103e a749 5d3e 8f0f 42be cb57 c7bc
00000020: a0dc 4bbb ffec d6bd 4a5e dbbd b8dd 663d
00000030: 36ee 3e3d 5b63 f73d 444c 22bc 758d 47bc
00000040: 5e26 51be 8440 eabc de9f 123e b58c 61bd
00000050: b163 583d b8dc 6b3c 3310 143e 9f7a 2abd
00000060: ee71 8cbd 7559 0d3e b123 3ebd 6fd0 15bd
00000070: 98ef 213e 0c2d 88bc c2a8 75bc 702c c13e
00000080: cda9 c83d ae72 893e e3fc 26bd fb3e a83e
00000090: 7b20 833e 134d 59be b91b 41bd 5ae3 05bb
000000a0: 22b4 89bc 8a80 61be fcf3 64bc 826b a1bd
000000b0: 4006 48be 2ca6 2bbe 0186 b3bc 7afe 33be
000000c0: 47bb 1abd c3d2 e83c c599 0fbe ef2c 523e
000000d0: 0c46 5cbe f827 a13e 3a8b b63b 9279 e73d
000000e0: 8d2c b9bd af4f 853c 1088 afbd 1a8e d13b
000000f0: 5e27 623e cc40 643e 98e2 93bd 3934 5fbd
00000100: 976a 76be 671e 23be d547 003e 15bd 723e
00000110: b06c 69be 9793 a6bb b72b 05bd f6db 923d
00000120: 93d6 f13d 5973 77bd bba8 173d be3f 91be
00000130: 291f 073d 99f7 a23c 0729 eebd 4bf4 973d
00000140: 7af4 743d d48d 733e 0e65 1b3e 63f8 35bc
00000150: 76f7 27bc f325 8a3e af4b edbc 1610 033d
00000160: 1293 503e e794 483e 027a f4bc b439 7abd
00000170: a87c bc3d c59f a3bd cbdc 19be 9819 42be
00000180: 0f00 373e 467d c1bd d141 3f3d 2473 1a3e
00000190: 4089 10be 675e 21be dce8 643c 7790 893e
000001a0: 6d00 32bd f1df fa3d e893 4cbe 7e27 073e
000001b0: 0b8c f93c e609 c83e 7d60 a03e 414e fb3d
000001c0: 1f1a 22be 22fb 873d 1db7 4ebb 29ca 4c3d
000001d0: 665c 1a3e 35e5 583d 1e72 223e d982 43be
000001e0: 238e 483e 2af3 963d 649a 23bd 5bd1 d7ba
000001f0: 2011 1d3b 2bfd 913d d029 11b8 51bd 713e
-0.09032692 0.041354477 0.09049874 0.20000115 0.14144173 0.21610127 -0.18951248 -0.024333855
-0.0031106845 -0.10494422 -0.107113436 0.05636379 0.046613894 0.120794974 -0.009905878 -0.012179722
-0.20424792 -0.028595217 0.14318797 -0.05506583 0.052829448 0.014395885 0.14459305 -0.041620847
-0.06857668 0.13803656 -0.046420757 -0.03657573 0.15814054 -0.016623043 -0.014993848 0.37729216
0.09798012 0.26845306 -0.040768515 0.3286055 0.25610718 -0.21220808 -0.04714558 -0.0020429702
-0.016809527 -0.2202169 -0.013974186 -0.078818336 -0.19533634 -0.16762608 -0.021914484 -0.17577544
-0.037776258 0.028420812 -0.14023502 0.20524953 -0.21511096 0.31475806 0.0055707963 0.113024846
-0.090417005 0.016273348 -0.08570874 0.0063951137 0.2208533 0.22290343 -0.07220954 -0.054493163
-0.24064098 -0.15929566 0.12527402 0.23704942 -0.22795367 -0.005083512 -0.032512393 0.071708605
0.11808505 -0.06041274 0.03702615 -0.28368944 0.0329887 0.019893454 -0.11628919 0.07419642
0.059803464 0.23784572 0.15175268 -0.011106583 -0.01025187 0.26982078 -0.028966753 0.031997763
0.20368603 0.19588052 -0.029843334 -0.061090186 0.09203464 -0.07989458 -0.15025632 -0.18955076
0.17871116 -0.09447722 0.046693627 0.15082985 -0.14114857 -0.15758668 0.013971534 0.2686803
-0.043457437 0.12249745 -0.19978297 0.13198659 0.030462286 0.39070052 0.31323615 0.12270785
-0.15830277 0.06639697 -0.003154225 0.049997482 0.1507431 0.052952964 0.15863845 -0.19092883
0.19585471 0.073705986 -0.03994216 -0.0016465591 0.0023966506 0.07128366 -3.4609635e-05 0.23607375

fc2.weight f4 [10, 128]
00000000: b6c9 5e3d 8564 1dbf b786 0ebf 2976 8fbe
00000010: eb06 dc3d 8fa5 89bd a788 b73d 15fe 75be
00000020: 037d 1f3e b9cc 753e 79c7 e2be 7d8d 02bd
00000030: cd6b 0e3e 409f 00bf 5995 7b3e 46bf 6e3e
00000040: 0ee7 8b3b 7e4b ab3d ed9a 77be ba7c a93d
00000050: a521 09bd 96d8 0e3d de98 753d 7f16 783e
00000060: 3902 d7bd 2d12 e33d a545 8b3d e58a 86be
00000070: dad3 81bf 53e0 4ebf 8599 0c3d 2df0 06bf
00000080: bee2 d4be 15db 8a3e efe9 6fbd 9593 7e3d
00000090: 65c2 883e 456f 453d 7fff e6be 1097 603d
000000a0: 66bc edbd d012 433c b918 dc3d b250 0d3e
000000b0: f448 2a3e 9a86 9dbd 5f72 e9bc cd5b 293e
000000c0: a0c4 403e 2baa 4cbf 407e 05bd 3bbc 0fbf
000000d0: 7759 2bbd 4872 c7be 2c72 0d3e bc19 663e
000000e0: a933 cb3d 23e6 0bbf a74b 22bf 4ed3 c9bd
000000f0: 0ce2 703e b20d b23d 8d81 12bf b63d 373e
00000100: 5682 2b3e 2af1 cfbd 87e1 b0be 212f 4c3e
00000110: e2be 0ebd e839 43bd 444d f7be 5f0a c13d
00000120: d61e 16bf d2d4 b73e 2ac9 12bf 5134 a53d
00000130: 9278 7dbf 8cd8 82bd 97fb 3c3e 1781 debe
00000140: 329b 90bd 9db3 12bf 5b00 8fbe 4aca b73e
00000150: c758 063e 584e 063d f185 e13c 2f1f c8be
00000160: 354b c5be d07d c5bd a6b9 7f3e 0ee7 293c
00000170: e55c 883e b41c d0be 347f 3a3e 8c65 c0be
00000180: 264c 3e3e 714c b7be 6e01 f83d 8abe cebe
00000190: 3627 093d 44ee 4f3d 5857 e23b bbb0 22bd
000001a0: 4ae5 053e 6f0f b9bd 5ed6 e73d 5d20 e5be
000001b0: b027 233e 37ad 0d3e bfca 17bf c732 c13d
000001c0: 8ccf 93be 1d1d 26bf c658 64bf f79c 33bd
000001d0: 26dc fabe f307 cdbe 8cce 593e 2661 85be
000001e0: 1a77 833e 0a23 1d3e a473 61bd 405a d83c
000001f0: 499c fdbe 3f4f fdbe 049e c3bd 4520 d93d
00000200: bb48 e7bd 8141 0d3b 4281 b23d b2a4 fe3e
00000210: 6c51 903e 7275 1cbf 6ab8 023e 7222 a43b
00000220: a5a6 a7be 6ac1 82bd f393 563d 7dc9 533e
00000230: 6244 d33d eb00 f43e 0a06 2d3e cb47 953e
00000240: 2464 403c 42b6 08bd c957 4c3e d6de 24bf
00000250: d213 d53d 8eb9 dcbc 088f 0f3d 5447 1bbf
00000260: 565b 1c3e 41f8 96be 096b 573e 6561 7f3e
00000270: 273c bb3d 2c7c 453e c2d7 d23c cc24 f6be
00000280: 63fd 313e 2ec3 1e3c 866d 563d 5928 953e
00000290: 0f51 f93c b9b9 edbd f426 09bf 8513 753b
000002a0: c1a8 61be 4095 1fbf cf03 1fbf 6242 163d
000002b0: 43ed 783c 9367 0abe da06 3dbd 3049 1abf
000002c0: bf64 8abe 5281 2dbf 097a 9ebe 66d4 593e
000002d0: a864 9dbe 343d 8f3e 7675 e1be 3255 cc3d
000002e0: e643 07bf 9e38 3d3e e825 57be d0f4 25bf
000002f0: 536b eabd c463 04bd 757b c83d e763 41bf
00000300: be38 10bf 429c d5be ce10 39bd b019 b03e
00000310: 180e ee3d 7733 9b3d 2394 1e3e 1ba3 71bf
00000320: 1190 313e 0de3 233e a566 9bbd e648 063e
00000330: 86c0 c73e 154f 0c3d d401 b0be 77e0 fe3d
00000340: 60e3 6a3d 8ebc 183e 3b90 373e 23eb f0be
00000350: c3ef 0abf a2a9 c23e 0ad2 d1ba a59d 28bf
00000360: a2e1 063e d54b 4cbe 924b 41be be65 ddbe
00000370: e654 a8be f99b 95be 019b 2abf 8e37 71be
00000380: 6ee4 14bf 495a 393e 7c73 46bd 2b73 58bf
00000390: 37c7 30bd b5b5 1e3c 8c1e 853d 2336 24bd
000003a0: a458 42bf a7a5 1b3f ef5e 03bf 0cc9 873e
000003b0: d265 593e 4836 f13e 24f7 653e 9fec 9d3c
000003c0: 26d1 253e c3b1 17bc ade3 e03a cdd9 6dbc
000003d0: 439b 113f 6b76 ea3d 82e2 913d 2b0f 053e
000003e0: 461b 353d 1c2b 2abf 4dce 9e3d 4172 41bd
000003f0: eef7 2f3e 207c b83d 8d00 553e 697e 10bd
0.054391585 -0.61481506 -0.5567431 -0.28019837 0.10743507 -0.06721031 0.08961611 -0.24022706
0.15575032 0.24003877 -0.4429281 -0.031873215 0.1390831 -0.50242996 0.2456869 0.23315153
0.004269487 0.08364008 -0.24180193 0.08275743 -0.03347935 0.03487452 0.05996024 0.24227332
-0.10498471 0.11087451 0.06800393 -0.26277843 -1.0142777 -0.8081104 0.034326095 -0.5271023
-0.4157924 0.2712027 -0.058572706 0.062152464 0.2671081 0.048201818 -0.45116803 0.054831564
-0.116082 0.011906341 0.10746903 0.13800314 0.16629392 -0.07691689 -0.02849692 0.16538925
0.18825006 -0.79947156 -0.032591105 -0.5614659 -0.041833367 -0.38954377 0.13813084 0.22470754
0.09921963 -0.54648036 -0.63396686 -0.09854756 0.2352373 0.086940184 -0.5722893 0.17894635
0.16748938 -0.1015342 -0.34547064 0.19939853 -0.03485001 -0.047662646 -0.48301136 0.09425806
-0.586408 0.35904557 -0.573382 0.08066619 -0.990121 -0.06388959 0.18455349 -0.43457863
-0.07060851 -0.5730532 -0.2792996 0.35896522 0.13119803 0.03278956 0.027529689 -0.3908629
-0.3853394 -0.096431375 0.24973163 0.010370029 0.26633373 -0.406469 0.18212587 -0.37577474
0.18583736 -0.35800508 0.12109648 -0.40379745 0.03348466 0.050764337 0.006907385 -0.039719325
0.13075748 -0.09036147 0.11320184 -0.44751254 0.15933108 0.13835607 -0.5929374 0.09433513
-0.28869283 -0.64888173 -0.8919796 -0.043850865 -0.48996085 -0.40045127 0.21270198 -0.2605068
0.25676805 0.15345398 -0.055041924 0.026410222 -0.495333 -0.49474522 -0.095516235 0.10601858
-0.11293169 0.0021553936 0.0871606 0.49735028 0.2818712 -0.6111671 0.12765661 0.005008989
-0.32744327 -0.06384547 0.05238719 0.2068233 0.10315777 0.4765695 0.16896835 0.29156336
0.011742625 -0.03337694 0.19955362 -0.6440252 0.10404171 -0.026943948 0.035048515 -0.60655713
0.15269217 -0.29486278 0.21036924 0.24939497 0.091423325 0.19285649 0.025737647 -0.4807495
0.17381816 0.009690089 0.052350543 0.29132345 0.03043416 -0.116076894 -0.5357506 0.0037395668
-0.22037031 -0.6233711 -0.62115186 0.0366844 0.015193286 -0.13516073 -0.046149112 -0.60267925
-0.27029988 -0.6777545 -0.3095248 0.2127243 -0.30740857 0.27976382 -0.44034928 0.09977187
-0.5283798 0.18478629 -0.21010554 -0.6482668 -0.11446252 -0.032321706 0.097891726 -0.75543064
-0.5633658 -0.41720778 -0.04518204 0.34394598 0.11623782 0.075781755 0.15486197 -0.94389504
0.17340113 0.16004582 -0.07587937 0.13113746 0.3901407 0.034255106 -0.34376395 0.12445157
0.057345748 0.14915678 0.17926113 -0.47054395 -0.542721 0.38020045 -0.0016008031 -0.65865546
0.1317201 -0.19950803 -0.18876484 -0.43241686 -0.32877272 -0.2922056 -0.6664277 -0.23556349
-0.58161056 0.18100847 -0.04844998 -0.8455073 -0.043158736 0.009686877 0.06499967 -0.04009069
-0.75916505 0.6079964 -0.5131673 0.26520574 0.21230248 0.47111726 0.22457558 0.019277869
0.16193065 -0.00925869 0.0017157696 -0.01451726 0.56877536 0.11448368 0.07123281 0.12994067
0.044215463 -0.6647203 0.077541925 -0.0472281 0.17184421 0.0900805 0.20800991 -0.035276804

fc2.bias f4 [10]
00000000: 27e6 e7bd 5477 4e3d 7d35 36be f4c2 e5bd
00000010: 6c9f 843d 7248 eb3c 6d5c 60bd 1d15 b2bd
00000020: 0212 a63e c5be cbbc
-0.11323195 0.05040677 -0.17793842 -0.11218825 0.0647572 0.028721068 -0.054775644 -0.08695433
0.32435614 -0.02487124
